Model: "sequential"
_________________________________________________________________
Layer (type)                 Output Shape              Param #   
=================================================================
conv2d_transpose (Conv2DTran (None, 4, 4, 150)     240000    
_________________________________________________________________
batch_normalization (BatchNo (None, 4, 4, 150)       600       
_________________________________________________________________
leaky_re_lu (LeakyReLU)      (None, 4, 4, 150)          0         
_________________________________________________________________
conv2d_transpose_1 (Conv2DTr (None, 7, 7, 75)      180000    
_________________________________________________________________
batch_normalization_1 (Batch (None, 7, 7, 75)         300       
_________________________________________________________________
leaky_re_lu_1 (LeakyReLU)    (None, 7, 7, 75)          0         
_________________________________________________________________
conv2d_transpose_2 (Conv2DTr (None, 14, 14, 32)   38400     
_________________________________________________________________
batch_normalization_2 (Batch (None, 14, 14, 32)      128       
_________________________________________________________________
leaky_re_lu_2 (LeakyReLU)    (None, 14, 14, 32)       0         
_________________________________________________________________
conv2d_transpose_3 (Conv2DTr (None, 28, 28, 1)     512       
=================================================================
Total params: 459,940
Trainable params: 459,426
Non-trainable params: 514
_________________________________________________________________




Model: "sequential_1"
_________________________________________________________________
Layer (type)                 Output Shape              Param #   
=================================================================
conv2d (Conv2D)              (None, 14, 14, 32)        544       
_________________________________________________________________
leaky_re_lu_3 (LeakyReLU)    (None, 14, 14, 32)        0         
_________________________________________________________________
conv2d_1 (Conv2D)            (None, 7, 7, 64)          32832     
_________________________________________________________________
leaky_re_lu_4 (LeakyReLU)    (None, 7, 7, 64)          0         
_________________________________________________________________
conv2d_2 (Conv2D)            (None, 4, 4, 128)         131200    
_________________________________________________________________
leaky_re_lu_5 (LeakyReLU)    (None, 4, 4, 128)         0         
_________________________________________________________________
conv2d_3 (Conv2D)            (None, 1, 1, 256)         524544    
=================================================================
Total params: 689,120
Trainable params: 689,120
Non-trainable params: 0
_________________________________________________________________




에포크 1 에서 소요된 시간은 39.415385484695435 초
에포크 2 에서 소요된 시간은 5.862650394439697 초
에포크 3 에서 소요된 시간은 5.840208530426025 초
에포크 4 에서 소요된 시간은 5.886267900466919 초
에포크 5 에서 소요된 시간은 5.924812316894531 초
에포크 6 에서 소요된 시간은 5.92431640625 초
…
