Model: "sequential"
_________________________________________________________________
Layer (type)                 Output Shape              Param #   
=================================================================
dense (Dense)                (None, 128)               12928     
_________________________________________________________________
leaky_re_lu (LeakyReLU)      (None, 128)               0         
_________________________________________________________________
dense_1 (Dense)              (None, 256)               33024     
_________________________________________________________________
leaky_re_lu_1 (LeakyReLU)    (None, 256)               0         
_________________________________________________________________
dense_2 (Dense)              (None, 512)               131584    
_________________________________________________________________
leaky_re_lu_2 (LeakyReLU)    (None, 512)               0         
_________________________________________________________________
dense_3 (Dense)              (None, 784)               402192    
=================================================================
Total params: 579,728
Trainable params: 579,728
Non-trainable params: 0
_________________________________________________________________





Model: "sequential_1"
_________________________________________________________________
Layer (type)                 Output Shape              Param #   
=================================================================
dense_4 (Dense)              (None, 512)               401920    
_________________________________________________________________
leaky_re_lu_3 (LeakyReLU)    (None, 512)               0         
_________________________________________________________________
dense_5 (Dense)              (None, 256)               131328    
_________________________________________________________________
leaky_re_lu_4 (LeakyReLU)    (None, 256)               0         
_________________________________________________________________
dense_6 (Dense)              (None, 128)               32896     
_________________________________________________________________
leaky_re_lu_5 (LeakyReLU)    (None, 128)               0         
_________________________________________________________________
dense_7 (Dense)              (None, 1)                 129       
=================================================================
Total params: 566,273
Trainable params: 566,273
Non-trainable params: 0
_________________________________________________________________




에포크 1 에서 소요된 시간은 5.620913505554199 초
에포크 2 에서 소요된 시간은 1.7009985446929932 초
에포크 3 에서 소요된 시간은 1.612090826034546 초
에포크 4 에서 소요된 시간은 1.5899319648742676 초
에포크 5 에서 소요된 시간은 1.6131260395050049 초
…
